…
int(nme(pred.cpu(), landmarks[None])) . Clipping input data to the valid range for imshow with RGB data ([0..1] for floats or [0..255] for integers). . Clipping input data to the valid range for imshow with RGB data ([0..1] for floats or [0..255] for integers). . tensor(0.0543) . from pytorch_lightning.core.memory import ModelSummary model = FaceModel(net_name=&#39;cnn7&#39;) model.example_input_array = torch.randn(8, 3, 128, 128) ModelSummary(model, mode=&#39;full&#39;) . | Name | Type | Params | In sizes | Out sizes - 0 | loss | WingLoss | 0 | ? | ? 1 | net | CNN7 | 6 M | [8, 3, 128, 128] | [8, 136] 2 | net.conv1 | Conv2d | 1 K | [8, 3, 128, 128] | [8, 64, 128, 128] 3 | net.conv2 | Conv2d | 36 K | [8, 64, 64, 64] | [8, 64, 64, 64] 4 | net.conv3 | Conv2d | 73 K | [8, 64, 32, 32] | [8, 128, 32, 32] 5 | net.conv4 | Conv2d | 295 K | [8, 128, 16, 16] | [8, 256, 16, 16] 6 | net.conv5 | Conv2d | 1 M | [8, 256, 8, 8] | [8, 512, 8, 8] 7 | net.conv6 | Conv2d | 2 M | [8, 512, 4, 4] | [8, 512, 4, 4] 8 | net.fc1 | Linear | 2 M | [8, 2048] | [8, 1024] 9 | net.fc2 | Linear | 139 K | [8, 1024] | [8, 136] 10 | metric | NME | 0 | ? | ? . !rm -rf lightning_logs/version_6 .",
            "url": "https://invisprints.github.io/blog/jupyter/fastpages/2020/09/06/Wingloss.html",
            "relUrl": "/jupyter/fastpages/2020/09/06/Wingloss.html",
            "date": " • Sep 6, 2020"
        }
        
    
  
    
        ,"post3": {
            "title": "人脸关键点检测",
            "content": "人脸关键点检测 . 人脸关键点的目标在
…
